…
          "base_uri": "https://localhost:8080/"
        },
        "id": "6cIYuON6Lr19",
        "outputId": "49d601f7-dce2-4a77-efc6-d2b85e321918"
      },
      "execution_count": 20,
      "outputs": [
        {
          "output_type": "stream",
          "name": "stdout",
          "text": [
            "Model: \"sequential\"\n",
            "_________________________________________________________________\n",
            " Layer (type)                Output Shape              Param #   \n",
            "=================================================================\n",
            " lstm (LSTM)                 (None, 100, 50)           10400     \n",
            "                                                                 \n",
            " dropout (Dropout)           (None, 100, 50)           0         \n",
            "                                                                 \n",
            " lstm_1 (LSTM)               (None, 100, 60)           26640     \n",
            "                                                                 \n",
            " dropout_1 (Dropout)         (None, 100, 60)           0         \n",
            "                                                                 \n",
            " lstm_2 (LSTM)               (None, 100, 80)           45120     \n",
            "                                                                 \n",
            " dropout_2 (Dropout)         (None, 100, 80)           0         \n",
            "                                                                 \n",
            " lstm_3 (LSTM)               (None, 120)               96480     \n",
            "                                                                 \n",
            " dropout_3 (Dropout)         (None, 120)               0         \n",
            "                                                                 \n",
            " dense (Dense)               (None, 1)                 121       \n",
            "                                                                 \n",
            "=================================================================\n",
            "Total params: 178,761\n",
            "Trainable params: 178,761\n",
            "Non-trainable params: 0\n",
            "_________________________________________________________________\n"
          ]
        }
…
